legged_gym/envs/buptDog/buptDog_flat/policy_1.pt (torch, 793096 bytes, 8 tensors)

weight f4 [512, 57]
00000000: dba9 c4bb ec92 fbbd 8662 c5bd 47a5 cb3d
00000010: 72c3 3dbe e2b0 923d 4b93 6cbd 3a73 12bf
00000020: 624c 163e 4315 42be 8ec7 69be d824 433d
00000030: e885 a83d ab81 833e a14d 1fbe 9c4b f23d
00000040: 658e b0bd 3ca9 fabd 563c 3e3e 406e 16bf
00000050: cb07 8c3e 20b3 9bbe b690 d83d 7b4d 10bd
00000060: e754 e23d 655b aa3d 9407 77bd b6db 023c
00000070: cc20 1abe de8f 9e3d 8fc8 61be 6345 95bd
00000080: 1b36 3a3d 1e86 8cbd 137f 80be c026 57bd
00000090: ca50 b3bd b985 a03d 890a 1ebd c7e3 433d
000000a0: 4475 41bd 5126 bbbb 4be9 a03d f160 17be
000000b0: 4951 08be ed20 1c3d f315 b73c c69e 9bbd
000000c0: 64b7 c0bb 7d21 6dbd cc02 6b3c f54a 7abd
000000d0: 04d0 a73d f3ee 28be 25d7 033e fdb8 933a
000000e0: 1fed f33b 9b20 ff3d f850 1fbe fe5f adbe
000000f0: e9c1 423d cfc4 873e 6007 efbd 8710 abbe
00000100: c75d 8fbd 89b3 003e c1bc 0fbe a98e 1abd
00000110: 8cf8 063f a812 43be 8c72 d8bd 5aa9 afbe
00000120: da26 bf3d c3c5 a03e ebb6 66bd 9829 5c3d
00000130: 3825 a8bd de12 293e 7587 223e 7a30 51be
00000140: fdcf a53d 419b 043e 1c57 84be 9c88 1bba
00000150: aac4 c73d 66c5 003f ff84 c03e 41c3 82be
00000160: 80da 513e 59d6 89be f5d9 f13e 77ad f23d
00000170: 2a10 8dbe d486 dfbd 5144 8dba 6191 b2ba
00000180: 1e5b 12bd dd9f b5bb 6282 833c 8407 7f3d
00000190: 20b8 febc 9a98 723d 9941 0e3d 2270 a93d
000001a0: 2bf6 7ebd 38a8 85bd 9efe 943c a410 b0bd
000001b0: d0d4 b93d d56b c83c 27f1 ac3c 5830 ff3d
000001c0: 1724 e8bc 5914 59be f1e6 a2bd 43f6 7bbc
000001d0: 6673 85bd 3a18 43be 05bd 49bd 7264 28be
000001e0: dc8d 893e 0083 d63d c1f9 163e d842 98bc
000001f0: b0c9 c0bd c6b8 823f d529 fbbe e608 7a3e
00000200: 334a 50be 5b14 d1bd c082 fb3d 5bad a3bd
00000210: ac21 70be 59b2 2bbd 30d8 aa3d aae0 b5bd
00000220: 8c9a 5d3e 932b 9a3e fb9f 74be 27bc e8bc
00000230: 997c aa3d 3893 f53d a527 7c3e 6ea7 473d
00000240: f140 b0bd 8566 39be a66e 90bd 4664 29bd
00000250: 7245 59be e1e4 0fbe 7321 b1bd 4624 7dbd
00000260: 7eca e7bb 2839 61bd 7193 aabc 3531 743c
00000270: 9db7 113d 9e32 633c 9af3 bdbc 330d 34be
00000280: fbcd 78bd 3daa 97bd 9ff9 78bd 690f b53c
00000290: b6b9 723c e50e a23d c81c e0bd abee b93d
000002a0: 43ae 41bd 3313 bbbd 1d01 00be 1142 323d
000002b0: 6198 7f3c 39c2 d0bd 5551 97be 3feb c73d
000002c0: 46f2 dbbe d7b5 5a3e 3594 6ebe 448c 3a3c
000002d0: 221c e3bc 0b2a a4bd 12f7 803e 0569 0e3e
000002e0: a9d0 7abe cd29 833b 84a1 74be b905 4c3e
000002f0: 105f 77be 73d9 86be 329e f5bb 2230 51bd
00000300: b6ed 0f3f 7ad9 193e 42bf 3e3e 903d d9be
00000310: 75e8 8abe 9d36 b83e 1e26 37be 79fc 963d
00000320: 8c96 eebd ca23 fcbd caf7 28be e95d 4dbe
00000330: 3c42 893a 7bbd 6b3c 175e 1bbe 71d5 debd
00000340: 0f1d 083d 64d1 68bd 53d3 14bd c0fd 4bbd
00000350: d700 8f3d 2e93 443d 99fe aebb dd95 283c
00000360: c1d4 c73c d4ec 20bd c29a f53c d76d 34bd
00000370: 0a46 cfbc 0c0e 91bd 9db9 933d 3c85 02be
00000380: 4bbf eebc 3826 943d 6bde c8bc e99d 3d3d
00000390: d0dc 85be 1096 79bd ec0f 083e a116 4bbe
000003a0: 1556 e0be ceb1 ff3d b89f 9abe 6da9 e13d
000003b0: 51a8 d2bd 3cb4 cb3e be2d b63e ddee 833d
000003c0: 1010 173e 644a 41bc 7f7d 3a3e 3b9f d7be
000003d0: 7352 663d 3995 19bd 4192 bbbd 02eb f3bc
000003e0: 8275 963d 3168 f5bd 3e0e 3bbc 2ded 42be
000003f0: 7434 c23d 58a1 fb3c 499c 06bd bdee 97bc
-0.0060016937 -0.122838825 -0.096379325 0.099436335 -0.18531588 0.07162644 -0.057757657 -0.5720707
0.14677575 -0.18953423 -0.2283003 0.04764256 0.082286656 0.25684866 -0.15556957 0.118308276
-0.086209096 -0.1223931 0.18577704 -0.5876198 0.27349696 -0.304101 0.105744764 -0.03523014
0.1105135 0.083182134 -0.06030996 0.0079869535 -0.15051574 0.07742284 -0.22049163 -0.07288625
0.045461755 -0.06861518 -0.2509695 -0.05252719 -0.08755644 0.078380056 -0.038584266 0.047824647
-0.047230974 -0.005711355 0.07856997 -0.14783074 -0.13312258 0.038117338 0.022349333 -0.07598643
-0.005881237 -0.057893265 0.014343929 -0.06110664 0.08193973 -0.16497402 0.1287504 0.0011270341
0.0074440385 0.12457391 -0.15558231 -0.338623 0.04754821 0.2651734 -0.116713285 -0.33411047
-0.070003085 0.12568487 -0.14036848 -0.037733708 0.52723 -0.19050086 -0.10568723 -0.34308892
0.09333582 0.3140088 -0.056326788 0.053750604 -0.08210224 0.16511104 0.15871985 -0.20428649
0.08096311 0.1294985 -0.2584771 -0.0005933137 0.097543076 0.50301206 0.37601468 -0.25539592
0.20493507 -0.26921347 0.472366 0.11849492 -0.27551395 -0.10914388 -0.0010777806 -0.0013623649
-0.035731427 -0.005542739 0.016053382 0.062263027 -0.031093657 0.059227563 0.034730528 0.08273341
-0.062246483 -0.06526226 0.018187817 -0.08596924 0.09073794 0.02446548 0.021111084 0.12460393
-0.028337521 -0.21199168 -0.07954205 -0.015378538 -0.06516151 -0.1905221 -0.04925253 -0.16444567
0.26866043 0.10474205 0.14743711 -0.018586561 -0.09413469 1.0212638 -0.49055353 0.24417457
-0.20340805 -0.102089606 0.12280798 -0.07992049 -0.23450345 -0.041918132 0.08342016 -0.08880742
0.21640986 0.3011137 -0.23889153 -0.02841003 0.08324546 0.119909704 0.24624498 0.048743658
-0.086061366 -0.18105514 -0.070523545 -0.041355394 -0.21217898 -0.14052154 -0.08648958 -0.06180217
-0.0070736995 -0.05498615 -0.020822259 0.01490431 0.035575498 0.013867049 -0.023187447 -0.1758316
-0.060743313 -0.07405517 -0.060784932 0.022102075 0.014814785 0.07912997 -0.109429896 0.090787254
-0.04728533 -0.09134521 -0.12500425 0.043520037 0.015600295 -0.10193295 -0.2955424 0.097616665
-0.42958277 0.21358429 -0.23298724 0.011385981 -0.027723376 -0.080158316 0.251885 0.1390725
-0.2449366 0.004002786 -0.23889738 0.19924058 -0.24157357 -0.26337776 -0.007495665 -0.051071294
0.56222093 0.15024367 0.18627647 -0.4242978 -0.27130476 0.35979167 -0.17885634 0.07372374
-0.11649808 -0.12311514 -0.16500774 -0.20055355 0.001047201 0.014388437 -0.15172611 -0.108805545
0.033230837 -0.056840315 -0.036334347 -0.04980254 0.06982582 0.047991924 -0.005340409 0.010289636
0.024393441 -0.039288357 0.02998102 -0.044050064 -0.025301952 -0.07082757 0.07213137 -0.12746137
-0.02914395 0.07233852 -0.02452012 0.046293173 -0.2614503 -0.060934126 0.13287324 -0.19832851
-0.43815675 0.124850854 -0.3019998 0.110186435 -0.1028601 0.39785945 0.35581774 0.06442044
0.14752221 -0.011797521 0.18211935 -0.4211367 0.056230973 -0.037495825 -0.09158755 -0.029775146
0.073466316 -0.119827636 -0.01141697 -0.19035788 0.09482661 0.030716583 -0.03286389 -0.018546456

bias f4 [512]
00000000: 0d17 2cbe 46d5 28be 509f 81bd e008 043d
00000010: 3d04 09bd 6a13 3b3d 0aae bb3d a12b 58be
00000020: cafc f9bd 9638 e4bc 732c 63bd 6572 d0bd
00000030: 30ae bdbd 90ff 41bd ab40 ac3d 2ee5 e1bd
00000040: 9e70 f03d dcaf 9b3d c160 783c 67dc 54bc
00000050: 8e78 163d cb5b b43c 9e2f 85bd d572 32be
00000060: 6d9c 85bd 4393 20bd c089 443d 8955 6d3a
00000070: 39e9 29be 1d16 7e3d 997f 38bd 0b30 8bbe
00000080: 0d67 093d 250c 49bc 0c81 8abd 154a 0abd
00000090: b0e6 beba e779 01bb 77d5 acbb ac91 d6bd
000000a0: e7de 0abe 3331 ffbd fff1 ebbd a22f f8bd
000000b0: bec6 2fbe 020b 17be c262 e73c 9fe9 6fbd
000000c0: 3669 a13d ef6d f73d 080a 773c 26b0 d23c
000000d0: cbd3 9e3d 015f 3f3d 1821 243d 40f5 22be
000000e0: 08d9 5abe e742 0ebe e3dc 5b3a 9b13 cfbd
000000f0: aaba 653d f79b ca3d 9ffd 03be 98e0 673c
00000100: 5f61 0c3d fae5 1abd c4be 393e fb34 0abe
00000110: 43ac 9ebd 2fee 35bd 085a 803d f895 2b3c
00000120: af16 32be 8ebd 6abd d6a8 0fbe be91 4abc
00000130: bb69 acbd b125 f2bd 0816 d83c 84f6 24bd
00000140: c087 f7bd 0512 a63d 8d8a fbbc b575 51be
00000150: 9669 9d3d ce6d 0abe dfbe 37bd db53 ed3d
00000160: 81e6 0bbe 50c4 2fbd 657a 6abd f90d 413d
00000170: b523 ba3d 989e 0abe 7e16 01bd 905a cabc
00000180: 9bdc 32be 0e4e 93bd e208 13be ff8e 9cbd
00000190: d889 343d efb2 933d fae5 e1bd bcc7 97bd
000001a0: 141e a5bd a952 83bc f4f5 3dbe 4fdd 14bd
000001b0: 15f2 50be 2718 4ebd 6147 043c f15a 0ebd
000001c0: 18ce d8bd 819a 2cbe cab3 41bc 3b9d 99bc
000001d0: d9c5 bd3c b8d6 413d 84a2 d1bd b563 8abb
000001e0: 5a62 a83d 79ef 12be ad8e 9cbd 1af1 08be
000001f0: 4124 a1be 2b24 003c a9f4 3ebe f4fb e33d
00000200: b335 8abd a436 cf3c 7702 5fbe 34aa 8ebd
00000210: 1e0d 02be 769b 72bd 5902 fa3c b9b1 81bc
00000220: 624f dbbd 542c 84bc 3de1 d0bc 829f 1d3d
00000230: b0fe f8bd a790 15be 2a76 183e 32d2 e43d
00000240: 8407 ff3d 2be4 0fbd c5ff 32bd 1160 80bd
00000250: a0fd 82be 03bd fcbd c478 93bd b2de d4bd
00000260: e465 afbd 10a2 ca3d 5f5c afbd 1f72 163e
00000270: 46a7 1d3e 9153 9c3d 23c4 973d 72e0 13be
00000280: e7c1 c8ba fb8d 8ebd 912d 06bd 288d 3f3c
00000290: a42c 8b3d e16d a8bd 1d80 973d 9434 c23c
000002a0: c0a8 913d c147 623d dd71 5f3d 5a88 fdbb
000002b0: 7a27 2bbe d781 17bd 9ae9 203e 48c5 26be
000002c0: 744b 12be 6d62 1a3d 2e31 5fbd 7176 4cbd
000002d0: 2ddf 203d 6079 a43d 1106 fa3d 0001 87bd
000002e0: a075 11be e554 00be eb3a 9abd 1668 103e
000002f0: 22db 08bd 8c0a 01bd 5fc7 a0bd f06d b6bd
00000300: 3460 8d3d 7bca 863d 0bcc 103e ecfc 903d
00000310: 664c 46bd 3bdd 1a3d 61e5 273e 169f 27bd
00000320: ad2c 27be 5cce 0abe cf86 38bc 49be 763d
00000330: 43ab 2bbe 08f6 d03c afee d33d 85f9 a4bd
00000340: 8959 aa3c 742b 353d 6ba9 a13d 6007 bfbc
00000350: 1d80 e3bc e121 2b3d 1707 95bd a7f1 d93d
00000360: 100a 2ebe 41c5 f23d b32c 14bd 8ca8 78be
00000370: f5df f2bd 508e 03bd d8dd 5bbd 3a9c a73d
00000380: fe79 48bd bc37 313d 7f4d b7bd 10df 95bd
00000390: d728 583c 1cce c3bd 0b01 d63d ba45 48bd
000003a0: 5393 923d 4c93 9b3d f6f9 47bd 1e6b aebd
000003b0: 4715 1cbc bbfd 6fbd a7ed 43bd d6a5 40bd
000003c0: c631 17be 4984 4a3d 6858 203c 4f93 8dbd
000003d0: bfb3 863d e5d9 8b3d 1719 d4bd a5b2 533d
000003e0: 6d65 d43c 6c8c 70bd 2602 adbd 1661 82bd
000003f0: e0a0 c8bd 5618 3cbd 6b78 fbbd 192d 583d
-0.16805668 -0.16487607 -0.063292146 0.032235026 -0.033451308 0.04567281 0.09164055 -0.21110393
-0.12206419 -0.027859014 -0.055462312 -0.10178069 -0.09261739 -0.047362864 0.08410772 -0.11030041
0.1174023 0.07601902 0.015159787 -0.012992001 0.036736064 0.022016427 -0.06503223 -0.17426617
-0.065239765 -0.03920294 0.04798293 0.0009053578 -0.16592874 0.062032808 -0.04504356 -0.2718509
0.033545543 -0.012270962 -0.06762895 -0.033762056 -0.00145646 -0.0019756497 -0.0052744704 -0.104770035
-0.13561593 -0.12460556 -0.115207665 -0.1211846 -0.17165658 -0.14750293 0.028245334 -0.058572408
0.078813955 0.12081515 0.015078075 0.02571876 0.0775524 0.046721462 0.040070623 -0.15913868
-0.21371853 -0.13892709 0.00083871017 -0.10111161 0.05608622 0.09893029 -0.12889718 0.014152668
0.034272548 -0.03781698 0.18139178 -0.13496773 -0.077477 -0.044416603 0.06267172 0.010472767
-0.17391466 -0.05730968 -0.1402925 -0.012363849 -0.08418604 -0.11823595 0.026377693 -0.040274158
-0.12086439 0.08108906 -0.030705715 -0.20455058 0.076861545 -0.1351845 -0.044859763 0.1158826
-0.13662149 -0.042911828 -0.05724563 0.047132466 0.09088842 -0.13537061 -0.03151559 -0.024701387
-0.17466967 -0.07192622 -0.14358857 -0.07644462 0.04407677 0.07211863 -0.11030193 -0.07411143
-0.080623776 -0.016030626 -0.18550855 -0.03634387 -0.20404847 -0.050316002 0.008073659 -0.034754697
-0.10586184 -0.16855814 -0.01182265 -0.018751731 0.02316563 0.047323912 -0.102360755 -0.004223312
0.08221884 -0.14349164 -0.07644401 -0.13373223 -0.31472972 0.007821123 -0.18648018 0.111320406
-0.067485236 0.02529461 -0.21778284 -0.069660574 -0.12700316 -0.05923029 0.030518698 -0.015831815
-0.107085004 -0.016134419 -0.025498027 0.038482197 -0.12157953 -0.14605962 0.14888826 0.11172904
0.12452605 -0.035129707 -0.043700952 -0.06268323 -0.25584126 -0.123407386 -0.072007686 -0.10394038
-0.08564356 0.09894192 -0.0856254 0.14691971 0.15395841 0.076331265 0.07410457 -0.14441088
-0.0015316576 -0.069606744 -0.0327583 0.011691369 0.06795624 -0.08224083 0.073974825 0.023706712
0.07112265 0.05524421 0.054551948 -0.0077372016 -0.16714278 -0.03698906 0.15714112 -0.16286194
-0.14286596 0.037691522 -0.05449026 -0.049917642 0.039275337 0.08030963 0.12208188 -0.065919876
-0.14205027 -0.12532385 -0.07530769 0.14102206 -0.033412106 -0.0315042 -0.07850527 -0.08907688
0.06903115 0.06581589 0.14140336 0.07079491 -0.048412703 0.037808638 0.16396095 -0.0409232
-0.16325636 -0.13555282 -0.01126261 0.060240064 -0.1676455 0.025507942 0.1034826 -0.080554046
0.020794647 0.044230893 0.07893642 -0.023318946 -0.02777105 0.041780356 -0.07276743 0.10641795
-0.16996026 0.118540294 -0.03617544 -0.24283046 -0.11859123 -0.03211814 -0.053678364 0.08184095
-0.048944466 0.043266043 -0.08950328 -0.073179364 0.013193331 -0.095607966 0.10449418 -0.04889462
0.07157006 0.07596454 -0.048822366 -0.08516525 -0.009526557 -0.058591586 -0.047834065 -0.047033153
-0.14765081 0.049442563 0.009786703 -0.069128625 0.065772526 0.068286695 -0.10356348 0.05168404
0.02592727 -0.058727667 -0.084476754 -0.06366174 -0.097963095 -0.045921646 -0.12278827 0.052777383

weight f4 [256, 512]
00000000: 2e7d 98bd 8858 86bd af5f 033e da63 b33d
00000010: 4d2b 8c3b 6782 2a3d e035 a5bc e480 07bd
00000020: 3582 113c 6efa 01be 05dd 873d 7bb2 16bd
00000030: 9fcb b93a 0790 7f3d 8d01 98bd 3488 ff3c
00000040: 09b1 a5bd 7637 c0bc 95e4 723d 982c 843d
00000050: 1c7b 153d 4659 783d 3953 ad3d bd48 703d
00000060: 8477 503d 9d4d de3c ca8e c73d d1c3 0f3c
00000070: d87d 8c3d 03ad b0bd d7bf 0b3d e4b2 38bd
00000080: f8bb a53d 248e 0d3e 443f 26bc 9fe0 453d
00000090: 705d acbc 0d83 efbd 7a63 12bd 4a29 3b3d
000000a0: 1570 63bd 10e2 553d 818e 693d e02c a2bc
000000b0: 8d1c 923d d359 0c3d b737 96bc 84fb 85bd
000000c0: 43c9 923d f646 d73b 14d5 01bd 07a0 78bb
000000d0: da8c 62bd ddf3 70bd b317 d7bd f96f 493d
000000e0: 6c49 fabb a880 be3d d171 3f3b c867 fcbc
000000f0: 94e5 ef3d 6526 2c3c 0b86 7cbc f7ab 303d
00000100: 6dee 3cbd 9802 81bd 30e7 8b3d bc3b 833c
00000110: c993 9bbd bad6 1a3d 8cd5 9fbd f32b ab3d
00000120: 6d0f 78bd 407d 79bd b547 18be 7392 d23d
00000130: 0688 69bb 96c6 a83c 08d4 4e3d 65f5 b9bb
00000140: ebd7 15bd 833d f1bd 3e89 bdbd fdc3 c1bd
00000150: 0747 903d 9ef5 ad3d 7d07 1d3c dbfa 423c
00000160: 409e 423d 15ca c63d c5ae 47bb 10d8 bbbc
00000170: 9e46 023d ebfe 09be dca7 303e 28d0 bc3d
00000180: 4429 97bd 9951 0fbe 3756 233d d1c3 153d
00000190: 301e 8e3d b8b4 b3bc ddea ebbc 5361 9dbd
000001a0: c632 e9bd 6390 e63d 1a3e 213d fb1d c9bc
000001b0: ce4e cc3c ed04 ba39 3d75 e6bd 7681 9fbc
000001c0: 553b f5bd d1d8 20be afee aa3d 5482 b23c
000001d0: 4118 7cbd 2607 663d 998f 6a3d ad6d 553d
000001e0: 2b08 a7bc 2f22 d13c 2883 e13c a2dc 96bb
000001f0: eddc c23d d532 5cbd 159e 063d 2e42 d9bc
00000200: caa8 e43c 3780 fbbc 19f4 4cbc aa56 96bd
00000210: ef3c a1bc bb38 4cbc 9e9e 4f3e 1f6d 833b
00000220: 8fea c7bc 7534 d33d 5408 04be d436 1e3d
00000230: bc25 9aba 8f64 99bd b7d8 973c b29c ac3d
00000240: 6686 d2bc bf2d 023e 0b4f 9cbd 0ed3 bc3d
00000250: 5ff2 713d 4c6b 1e3b 2911 0d3c ea06 073d
00000260: 832f b3bc 0fd0 803b 8308 3d3d 2775 86bd
00000270: 0c31 44bd 3034 2b3d fa1d 12be c18f 09bd
00000280: 2d2c dd3d c460 57bb ce79 cc3d d7b1 d03c
00000290: 7247 10bd 416a 0e3e b00c e53c f622 b7bb
000002a0: 3471 f53a c27d f9bc 9570 3d3e 65a9 593c
000002b0: a70b 0b3d b5bc d6bc cc7a 673d 1f4c eb3d
000002c0: b31d c0bb eaae 1e3c 11da 1c3d 403f c13c
000002d0: 3e74 673d 63bf 34bd 26e6 2b3d b08c a03c
000002e0: d3db 173e 0cca 403d 89e7 7fbc 20c3 633d
000002f0: 1be8 ea3d 4c4c 763d 75b2 583d 3758 ab3d
00000300: 3af7 b03d 28a9 993d 2d3b 25bc 9da1 b83d
00000310: 4e31 a03d 08d6 d33c b41c c33c dfe6 963d
00000320: fea4 693d afcf c5bc 53e4 d2bd 96a9 bcbd
00000330: e92b d53d 02a9 133e 4b31 ab3d 81d3 66bd
00000340: e653 9f3c dd92 caba e4b3 a6bc d7d3 443d
00000350: b706 db3d 3f30 943b 6d0a 0dbe 5b20 15bd
00000360: 4341 513e e212 2a3e dc9b a2bc 2f08 e93a
00000370: 2240 863d 117e 8dbd 5fb6 633d 319f 30bc
00000380: d665 01be 82ae 57be 66c7 923c 0f87 99bc
00000390: e538 c33c 58aa c33d 7c30 cf3d a49a 4dbc
000003a0: e9f5 ae3c 53c3 8f3c dd4c 13bd e613 02be
000003b0: 8082 64bc 087d 473c efff f3bd ba93 23b8
000003c0: 13af c1bc 9ebf 95bc a892 d1b9 26d3 96bd
000003d0: 649f adbc 51b8 113c f364 e6bd 099f 79bd
000003e0: b02f 1bbd a489 fbbb 0d24 05bd 6ad1 f03c
000003f0: 3fd7 e0bd bcc8 05bd 7d95 80bd 938d 193d
-0.07445751 -0.06559855 0.12829469 0.087592795 0.004277623 0.041628268 -0.020167291 -0.033081904
0.008881141 -0.12693188 0.06633953 -0.036791306 0.0014175064 0.062393215 -0.07422171 0.031192876
-0.080904074 -0.023463946 0.059300024 0.06453818 0.03649436 0.060632013 0.08463139 0.05866312
0.05089523 0.027136618 0.09744032 0.008774714 0.0685994 -0.08626749 0.0341185 -0.04509248
0.08092493 0.13823754 -0.01014692 0.04830992 -0.021040648 -0.11694918 -0.0357394 0.045693673
-0.05552681 0.052217543 0.057020668 -0.019796789 0.07134352 0.03426535 -0.018337114 -0.065421134
0.07167294 0.0065697385 -0.031697348 -0.003793718 -0.055310108 -0.058826316 -0.10502567 0.04917905
-0.007638147 0.09301883 0.0029212127 -0.030811206 0.117137104 0.010507201 -0.015412818 0.04313275
-0.046125818 -0.06299323 0.06831205 0.016019695 -0.07596547 0.037802435 -0.07804403 0.08357992
-0.060561586 -0.060910463 -0.14871104 0.10281839 -0.0035634055 0.020602506 0.050495178 -0.0056750053
-0.03658287 -0.117793106 -0.092546925 -0.0946121 0.070447974 0.084941134 0.009584305 0.011900629
0.0475142 0.09706513 -0.003046916 -0.022930175 0.031805627 -0.1347615 0.17251533 0.0921939
-0.07380918 -0.13995971 0.039877143 0.0365637 0.069393516 -0.02193676 -0.028798515 -0.07684579
-0.113866374 0.11258008 0.039365865 -0.024550429 0.02493992 0.00035480355 -0.1125283 -0.019470911
-0.11974207 -0.15707709 0.083463065 0.02179066 -0.061546568 0.05615916 0.05726585 0.052106548
-0.020389637 0.025528995 0.02752836 -0.004603938 0.095147945 -0.053759415 0.032865603 -0.026520815
0.027912516 -0.030700786 -0.012509369 -0.073407486 -0.019682376 -0.0124646975 0.20275351 0.004010811
-0.024403838 0.1031274 -0.12893802 0.038626507 -0.0011760513 -0.07489883 0.018535955 0.08428325
-0.025698852 0.12712763 -0.07632264 0.09219943 0.059069034 0.002417284 0.008610048 0.03296558
-0.021873241 0.0039310525 0.046150696 -0.06565314 -0.047898337 0.041797817 -0.14269248 -0.03358436
0.107994415 -0.0032864073 0.0998417 0.025475426 -0.035224386 0.1390772 0.027960151 -0.0055888845
0.0018725754 -0.030455474 0.18499978 0.013285016 0.03394666 -0.02621303 0.056513593 0.11489128
-0.0058629154 0.009685257 0.0382939 0.02358973 0.05650734 -0.044127833 0.041967534 0.019598335
0.1482995 0.047067687 -0.015619167 0.055606008 0.11470052 0.060131356 0.052904565 0.08366435
0.08640905 0.07502967 -0.010084909 0.090152 0.07821904 0.025858894 0.023817398 0.07368254
0.057042114 -0.024146883 -0.10297456 -0.092120335 0.10408766 0.1441994 0.08359011 -0.05635405
0.019449186 -0.0015455146 -0.02034945 0.04805359 0.1069464 0.004522353 -0.13773508 -0.03640781
0.20435052 0.16608766 -0.01984971 0.0017778928 0.06555201 -0.06908811 0.055593845 -0.010780142
-0.12636504 -0.21062663 0.017917346 -0.018741159 0.02383084 0.09553975 0.101166695 -0.012549076
0.021357493 0.017549193 -0.035961974 -0.12702903 -0.013947129 0.012175806 -0.1191405 -3.899981e-05
-0.023643052 -0.018279847 -0.00039972854 -0.07364492 -0.021194167 0.008894042 -0.11249723 -0.060942683
-0.037887275 -0.00767632 -0.032505084 0.029396731 -0.10978555 -0.03266214 -0.062785126 0.03748853

bias f4 [256]
00000000: 651b 2fbd 0a91 e0bc 4c77 29bd ed12 92bd
00000010: cb00 9dbd 9060 8dbd c2a1 05be 9f5f 8cbd
00000020: ee17 66bd 369f 45bd aed7 93be 7ccc d1bd
00000030: f224 b5bd dd86 bfbd 2bfc a2bd 3ddd 50bd
00000040: ce81 4dbd b885 5bbd 9f0e 43bd 377f 2bbc
00000050: d565 7dbe 2583 70bd dd4b 42bd fb41 2cbd
00000060: 0bc2 93bd 760a efbb 6ed5 d6bd 3541 0cbe
00000070: d968 ddbd bcc5 3cbd f974 14bc 8cd3 07be
00000080: 2b6b c0bc 54a8 0fbd 469b 5abd eaab 3ebd
00000090: 75eb 623d d02f adbd 874f 2bbe 40fe 09bc
000000a0: c0e2 9abd 5005 35be 0ce8 91bd aaab 2cbe
000000b0: f9c2 873d ce12 52bd 6ec1 2fbe 9826 38be
000000c0: b7c7 6fbd cf27 2dbd 5077 8fbd b75d 44be
000000d0: bdef debd 29e6 f5bd 1a95 0ebd 6d73 1dbd
000000e0: bdb4 d5bc cfd1 b7bd 6dc8 fcbd 780f 1cbe
000000f0: 751b ddbc 7e40 17be c05a bfbd 70b4 81bd
00000100: 8243 9fbd 4b17 12be fd48 f8bc f1e5 3dbe
00000110: b4aa e3bd 8fca f4bd 3e97 8ebd ac6b 89bd
00000120: 13b9 c6bd 1fb7 edbc 4fa7 a4bd 238a 9fbd
00000130: 778a 08bd b33e 92bd 4675 9c3b 0c37 3cbc
00000140: 8f97 b4bd c301 e8bd 959e b8bd 748b bbbd
00000150: f39a c9bd 568a 8cbd f584 d3bd 24df c2bd
00000160: b517 56bd d563 a0bc 9be3 39be 8b07 32be
00000170: 63a3 853d 93c5 f1bc eeab 65bd cf3a 03be
00000180: 20d6 4cbd 5779 8bbe 2abf 72bd e87b b5bd
00000190: d47f c4bd b13e 14be 9cf7 c3bc f3f2 52bd
000001a0: 3e11 80bc 2d5a bbbc 94d2 41bd 6cbc 92bd
000001b0: c88c 64be ddc3 80bb 32f1 dcbc 1bde f3bd
000001c0: d6f0 5dbc c293 d6bc 7d97 4dbd 38fd f33c
000001d0: 5d94 38bd af11 84bd 3394 ffbc 54ae 9abd
000001e0: def2 70bd 4d9a babc fa79 92bb 806c 26bd
000001f0: 2e33 a4bd e72d f1bd 3faf afbd 5aa2 1bbe
00000200: 4d89 443c 610b 8e3d 3135 72bc 6f03 25be
00000210: d363 0ebd a878 a4bc ebde d7bc 83a3 dfbc
00000220: 7675 c0bd 393c 6ebc 45d4 553d d9f8 b6bd
00000230: b95d dabd 9ebc ffbc 1188 b3bd 5cb3 babd
00000240: e108 99bd 0894 d6bd df5e 98bd ebb2 12bd
00000250: ab19 9b39 3432 bebd 7c0a 60be 8b4e d4bc
00000260: 3499 33bd 098d 183d 68a8 99bd ccd1 94bd
00000270: 20aa 2fbd c691 2fbd 9531 a4bc ed57 d5bd
00000280: 8af5 68be 4be7 48bd c472 b4bb e9d5 a5be
00000290: 03c8 12be 5f72 0ebe af61 34b9 2663 edbd
000002a0: c88e 91bd 0af8 90bd 3352 5f3a e995 99bd
000002b0: 6f60 3e3a b197 eabd 9a2b ffbc fd56 17bd
000002c0: 52a9 03be b4ee 95bd 7025 39be f50e fdbd
000002d0: 8da4 8cbd 31f5 0ebd 3981 adbd b010 bbbc
000002e0: ea72 8a3b 935a f23d 5b4b a4bd 7849 b0bd
000002f0: 60f7 07be 1186 2ebd 9fa0 1b3b 521d 0bbe
00000300: d8e0 43bb 6f58 1d3c 509b e8bc 6aa1 06be
00000310: 3feb fdbc ae8b 40bd e55a 4f3d 5b3f 02be
00000320: fd4e 27be 26f3 0e3d 3f25 32be 9561 86bd
00000330: 8a91 a8bd 971b 85bd 9340 d9bd 1645 98bd
00000340: 1698 c8bd 56a2 1abe 0cef 96bb fa16 47bd
00000350: 9bff 41bd 16d0 373c 02b4 f5bd 927c bcbd
00000360: fb08 2dbd 4f00 0ebc aac2 6f3d d8f7 8abd
00000370: a4aa b5bd d5b9 dd3c ce8b 9fbd 40ca 303d
00000380: 980e a4bd 1a0c 96bd 932d eebd cab2 8dbd
00000390: 4387 e1bd 7470 ffbd b9c8 36bd a06b d7bd
000003a0: 28c9 aebd 338f 00be d5b7 153c 63dc 15be
000003b0: a192 1cbe 8465 17bc 28b3 06be b30f 68bd
000003c0: b604 153d bd40 24be 9357 4cbe d646 b3bd
000003d0: c110 43bd 52c2 a3bc 2ccc f3bb ecf8 7fbd
000003e0: d358 14bd b332 17be 9926 5ebd 3770 0abe
000003f0: 9d49 d5bc 4c80 d3bd 92f3 1dbd 62b0 24be
-0.042750735 -0.02741291 -0.041373536 -0.07132516 -0.07666167 -0.069031835 -0.13049987 -0.06854176
-0.056175165 -0.04824754 -0.28875488 -0.102440804 -0.088449374 -0.09351895 -0.079582535 -0.05099224
-0.05017262 -0.05359432 -0.047621366 -0.010467342 -0.24745877 -0.05871882 -0.04743563 -0.04205511
-0.07214745 -0.007294948 -0.10489927 -0.1369675 -0.10811014 -0.04608701 -0.009061092 -0.13264292
-0.023488602 -0.03507264 -0.053370737 -0.04655067 0.05540033 -0.08456385 -0.16729556 -0.008422434
-0.075627804 -0.17677808 -0.071243376 -0.1686236 0.06628985 -0.051287465 -0.17163631 -0.17983472
-0.058540072 -0.042274293 -0.07005179 -0.19176374 -0.1088557 -0.1200679 -0.034810163 -0.038440157
-0.02608716 -0.08975565 -0.12342916 -0.15240276 -0.026990632 -0.14770696 -0.09343481 -0.06333244
-0.07776548 -0.14266698 -0.030308241 -0.18544747 -0.111165434 -0.119526975 -0.06962441 -0.0670999
-0.09703269 -0.029017983 -0.08039724 -0.07790019 -0.033335175 -0.07140865 0.0047747223 -0.011487734
-0.0881797 -0.11328461 -0.09014622 -0.09157458 -0.09844007 -0.06862323 -0.10328094 -0.09515217
-0.052268703 -0.019578854 -0.18153231 -0.1738569 0.06525304 -0.029513156 -0.056072168 -0.12815402
-0.050008893 -0.27241012 -0.05926434 -0.08861524 -0.09594694 -0.1447704 -0.02392178 -0.051501226
-0.015633222 -0.022870148 -0.047319964 -0.07164845 -0.22319329 -0.0039295987 -0.02697048 -0.11907598
-0.013546189 -0.026193503 -0.0501933 0.02978383 -0.045063365 -0.064486854 -0.031198597 -0.07552782
-0.058825366 -0.022778654 -0.004470107 -0.040630817 -0.08017574 -0.11776333 -0.085783474 -0.15198651
0.011995626 0.06935764 -0.01478319 -0.16114591 -0.03476317 -0.020077065 -0.026351413 -0.027299648
-0.09397404 -0.014540725 0.05220439 -0.08934183 -0.106624074 -0.03121787 -0.08766187 -0.09116241
-0.07472397 -0.104774535 -0.0743997 -0.03581516 0.00029583028 -0.09286919 -0.21879 -0.025916358
-0.043847278 0.037243877 -0.07502824 -0.07266578 -0.042886853 -0.04286363 -0.020043174 -0.10417161
-0.22749916 -0.049048703 -0.005506845 -0.32389763 -0.14334111 -0.13910817 -0.00017202528 -0.11591177
-0.071073115 -0.0707856 0.00085190235 -0.07499296 0.00072622945 -0.11454714 -0.03114872 -0.036948193
-0.1285756 -0.0732092 -0.18080688 -0.123563685 -0.06867323 -0.0349018 -0.08471913 -0.022835106
0.0042251246 0.11833682 -0.080221854 -0.08607763 -0.1327796 -0.042608324 0.002374686 -0.13585404
-0.0029888656 0.009603604 -0.028394371 -0.13147512 -0.030995963 -0.04700821 0.050623793 -0.1271948
-0.16338725 0.034899853 -0.17397021 -0.06561581 -0.082308844 -0.06499403 -0.1060802 -0.07435052
-0.09794633 -0.15100989 -0.0046061333 -0.048605897 -0.047362905 0.011219045 -0.119972244 -0.092034474
-0.042244893 -0.008667066 0.058535255 -0.06785554 -0.08870438 0.02706615 -0.077903375 0.04316163
-0.08010596 -0.07326527 -0.11629786 -0.06918867 -0.11012127 -0.124726206 -0.044625018 -0.10518575
-0.08534461 -0.12554626 0.009138067 -0.14634852 -0.1529031 -0.009240512 -0.1315428 -0.056655597
0.036381446 -0.1604032 -0.19955282 -0.08753745 -0.0476234 -0.01999012 -0.0074401107 -0.06249325
-0.036217522 -0.14765434 -0.05423603 -0.13519369 -0.026036078 -0.10327205 -0.038562365 -0.1608291

weight f4 [128, 256]
00000000: 6a86 cfbd 0f1b 98bc bc79 dcbd 7363 99bc
00000010: 176c 8cbc 3453 b13c 94f8 443d a111 b13c
00000020: 09c6 573d 2f55 df3d 9658 fa3d 30b9 22bd
00000030: 9284 9abb f1a3 bb3c 111c 84bd 1869 753d
00000040: 4bdc 13bd 329d e9bd e727 953d a64c 4a3d
00000050: 9458 a3bd f9ab ffbd a923 03be ec52 06be
00000060: 91cb 0b3d 6030 11be 4788 81bd f060 96bc
00000070: 9b97 5dbd 6647 b2bd 8d5b e4bd 80e2 a33b
00000080: bd44 a83d 54f9 913c 3e5e b2be a5aa a93d
00000090: 7f15 e0bd ba70 6b3d 367e dabc deae 3b3c
000000a0: f90c 5e3d 2824 0b3d 25e7 3cbc 73aa b53d
000000b0: 87ab 913d aa03 dc3d b4e2 f1bd 25ef 96bc
000000c0: db02 c83d cfa5 393d ddd6 5b3d 3515 003e
000000d0: eb6b 6d3d 3f22 693d 4b20 2a3c 58a4 8f3c
000000e0: 374e c1bd bfb6 dbbd 246a 8b3d afa0 7bbc
000000f0: 5987 6ebd f80f 28bd bdee 94bd 16ee d83d
00000100: 0d1d 23be 0703 61bd 72e8 dc3c 0fda 583c
00000110: 3259 a23d 58ca 733d 9c20 bfbd 2fdf 9c3b
00000120: 5f26 7bbd ea75 d03d d267 213c 2483 4cbe
00000130: 7827 903d 6a32 e4bd 71a1 8ebd 7933 9b3d
00000140: b2a6 8bbd fa29 bdbe 363b 7d3c 352f efbc
00000150: 7458 a6bc e96d 34bd 4053 a63c 159b a73d
00000160: c2fe 83bc 5f84 58bd e4ca c4bb c428 2dbe
00000170: 823d e53c 4b77 9dbd e43b 2bbe ab90 953c
00000180: d72e cbbd e51c 05bd 3708 1bbe c6e7 bdbd
00000190: 30f1 cf3c 3082 65bc a7c6 f83c deea b5bc
000001a0: 98e3 87bd 2c24 293d 2631 03be 6c22 503d
000001b0: d27f bf3d b74b 8c3c 8a8f b5be 23f2 933d
000001c0: 2081 83bc e0eb ebbd c205 98bc 5530 29bd
000001d0: 8d70 36bc b770 233e cff4 e93d 96a9 c93d
000001e0: 93e9 3bbe 7293 823d 3a75 13bd f145 bcbd
000001f0: 40b5 bf3d 6822 bf3c 27d8 bcbd b53f ee3c
00000200: b42b 3d3b 353b 8b3c e27b 86bd bd4b 723d
00000210: 5456 933d b129 41bc f39b 15bd cc90 a1bd
00000220: 5b54 16bd eec4 42bd 4f26 f13c 07e2 2bbd
00000230: 7784 6f3d 4bbf 5c3c 517e b43d b830 dd3b
00000240: 6d7e 9f3d 640f f43c 3c47 61bd 8b32 4e3d
00000250: 9c44 01bd a15e 983d ec50 17be 26aa 2ebd
00000260: f043 d53c 5496 20bd a31a 3b3c 0d7d 6c3d
00000270: eb6b 2ebe 4a0a d83d 9a2a dcbd c842 af3d
00000280: 74d6 0d3e ffff 8f3c ed2e b7bd 322c e9bd
00000290: a4d2 bfbd 1593 c2bd 7f59 06be bf23 3abb
000002a0: 6e56 70bd ce8b 5dbd 0a25 62bd eca2 3f3d
000002b0: b6fb 2ebd b831 2a3b 1924 853d 7a0c 823d
000002c0: 94ba f03c c1e5 e13d 068f c3bc b4df b6bd
000002d0: 9de5 6fbd 2003 b1bc 0373 823d b7b0 9dbd
000002e0: 553e cebd e5d0 ad3d 1488 e8bc 12b2 50bd
000002f0: a377 b23c afb6 03bd 9300 21bd d3f7 1fbe
00000300: 625c 803c 317b b83c e822 90bd fda1 053c
00000310: 853c 98bd 16b5 96bc 8815 683d f1d7 203d
00000320: 6113 193e 6627 f1bd c916 85bd 107b d0bc
00000330: 03fb 153d 60fa 1e3d 4e2d 793d d565 48be
00000340: 8823 4d3d 5028 99bc 1958 acbb 6ecf 243c
00000350: 375e 253d 2b96 cf3d 2cc4 053d 7334 b03d
00000360: 483d 30bd 8048 4abd 74a9 64be f6bc 413c
00000370: 8c28 0ebd 5ab2 c7bc 4025 7fbd 2fb0 083c
00000380: b317 b4bd befd 6abd 8853 0bbe 3878 96bc
00000390: 49b8 19bd f156 013e ea50 bf3b 76bc 0ebe
000003a0: 9080 fa3b 35a1 90bd 2962 ccbd 88e3 a3bd
000003b0: e508 833d 4320 a13d e169 acbc 2a8a b03a
000003c0: cb4f 74bd 0603 033e f2ae f7bd 100f ad3b
000003d0: cd80 06be dfea fa3c f12d 1bbd 1219 a7bd
000003e0: 2b17 17be 8e21 7f3d 3969 8bbd 7254 943c
000003f0: 3413 4b3d 45d9 473d b767 c8bd f82d b5bc
-0.10133059 -0.01856759 -0.107654065 -0.018724179 -0.017141385 0.02164612 0.048088625 0.021614851
0.052679095 0.10904919 0.12223928 -0.03972739 -0.0047155106 0.022905322 -0.06450666 0.05991468
-0.03609876 -0.11406936 0.072830014 0.049389504 -0.07975879 -0.12483973 -0.12806572 -0.1311757
0.034129683 -0.1417861 -0.06324821 -0.01835677 -0.05409966 -0.087050244 -0.111502744 0.005001366
0.08216236 0.017819084 -0.34837526 0.08284501 -0.109416 0.05748055 -0.02667151 0.011455266
0.05421159 0.03397003 -0.0115297185 0.08870401 0.07112794 0.10742886 -0.11810818 -0.01842458
0.0976617 0.045324143 0.053671706 0.1250809 0.057964247 0.056917425 0.010383676 0.01753442
-0.094387464 -0.107282154 0.06807354 -0.015358134 -0.058234546 -0.041030854 -0.07272098 0.10592286
-0.1592905 -0.054934528 0.026966307 0.013235583 0.07927169 0.059519142 -0.093323916 0.0047873477
-0.06131589 0.1017874 0.009851413 -0.19971901 0.07038778 -0.11142428 -0.06964386 0.07578177
-0.06818904 -0.36946088 0.0154560115 -0.029197315 -0.02030585 -0.04405013 0.020303369 0.081838764
-0.016112689 -0.052860614 -0.0060056318 -0.16910082 0.02798343 -0.07688769 -0.16722065 0.01825746
-0.09921043 -0.03249826 -0.15139852 -0.09272723 0.025383562 -0.01400809 0.030368162 -0.02220672
-0.06635207 0.04129426 -0.12811717 0.050814077 0.09350552 0.017125947 -0.35461074 0.07223918
-0.016052783 -0.11519599 -0.018557433 -0.04130586 -0.011135233 0.15960966 0.11423647 0.09846799
-0.1835082 0.06375779 -0.036000468 -0.09193028 0.093607426 0.023331836 -0.09220915 0.029083112
0.002886516 0.016996006 -0.065665975 0.05915426 0.071942 -0.011789725 -0.036525678 -0.07888946
-0.03670154 -0.047551088 0.029437212 -0.041963603 0.058475938 0.013473342 0.088131554 0.0067501925
0.07787786 0.029792495 -0.054999575 0.05034117 -0.03155957 0.07439924 -0.14776963 -0.042642735
0.026033372 -0.039205864 0.011419925 0.057736445 -0.17033355 0.105488375 -0.10750313 0.085576594
0.13851339 0.017578123 -0.08944497 -0.11385383 -0.093663484 -0.0950071 -0.13120078 -0.0028402654
-0.058676176 -0.054088406 -0.055211104 0.046786234 -0.04272052 0.0025969576 0.06501026 0.06350036
0.029385842 0.1103015 -0.02387191 -0.08929387 -0.058568586 -0.021607935 0.06369593 -0.07699721
-0.10070483 0.08487109 -0.0283852 -0.05095107 0.021785563 -0.032156643 -0.03930719 -0.15621881
0.015669052 0.02251968 -0.07037908 0.008156297 -0.07433418 -0.018396895 0.05666116 0.039268438
0.14948799 -0.11775093 -0.064984865 -0.025449306 0.036616337 0.038812995 0.06083422 -0.19570096
0.050082713 -0.01869598 -0.0052595255 0.010059221 0.040373053 0.10136064 0.032657787 0.08603754
-0.043027192 -0.049385548 -0.22330266 0.011824837 -0.034706637 -0.024377037 -0.062291384 0.008342787
-0.08793583 -0.057370894 -0.13606083 -0.018367872 -0.037529264 0.12630822 0.005838503 -0.1393908
0.0076447204 -0.07061998 -0.0997966 -0.080023825 0.06398181 0.078674816 -0.02104658 0.001346891
-0.05964641 0.12794122 -0.12093915 0.0052813366 -0.13135071 0.030629573 -0.03788561 -0.08159079
-0.14754932 0.06228786 -0.06807179 0.018106673 0.04957886 0.04879119 -0.09785407 -0.022116646

bias f4 [128]
00000000: 3ca2 e8bc 30a3 fcbc 1874 3fbd c526 aebc
00000010: cb29 19be 9f72 1d3c 2a7c 59be 001e 08bd
00000020: 0ce3 bebd 6d19 a1bd 1adb caba 2099 99bd
00000030: b0d9 c9bd 33d8 18be 43fb abbd d9a5 6b3c
00000040: 2f02 5cbd cec2 86bc c037 a43c aefd 80bd
00000050: 527a 3abd 3b31 dabc 1e04 7a3c 0a76 57bd
00000060: 79c9 8cbd 11a8 aabd 618d 953b d303 9fbc
00000070: f23b 65bc ddc7 abbc 7eda abbd 2b93 d6bd
00000080: ba33 60bd 0954 cbbc cd0b 3e3b 0932 fdbb
00000090: d766 85ba 0d68 0abd f113 19bd 904a 4abd
000000a0: 248d c0bd 1af4 90ba cbfe dfbd 9d69 e9bd
000000b0: 727a 133c f466 e63c 1077 abba 96e6 4cbc
000000c0: 0151 a2bd 1e97 d4bd b522 a1bd 9a4b e0bd
000000d0: c296 27bd 3dba a43c 2ea8 a4bd ee6c f3bc
000000e0: 89b2 03be 90fb c43b bafd 2abd 27d0 1cbd
000000f0: a487 b6bd 3930 12bd f02c c2bd 6b60 10be
00000100: 00c7 c2bd 3079 a4bd b870 babe 09c1 55bd
00000110: 4899 84bd cca1 f5bd 013e 1c3c 837c 9dbd
00000120: b205 03bd bd10 d3bd 497c e2bd dbec 9ebd
00000130: e77d 943b 023a c33c 7fc2 22be 94f3 1cbe
00000140: 35d1 28bd 7b8e 223d 23f2 883d fe84 82bd
00000150: 49d1 efbd 2dcb 35be 34ee 3cbc 234d c0bd
00000160: 32c3 a6bc 06f7 2ebe c431 cabd 1828 a33c
00000170: 9d71 99bd 811f afbd 9e13 bc3b a421 18be
00000180: d707 e1bc 9e59 4fbd 8ae6 31be 8521 e0bd
00000190: ce0f 1bbe 2092 a0bd 05b1 f7bc d655 24be
000001a0: 242d b23b 1084 2cbd 18bb 89bd 3762 8d3c
000001b0: c4d8 5abe b445 c0bd afc1 c8bc c179 1abe
000001c0: 50a9 76bd 6190 06bb b1cc 7dbc d538 e13d
000001d0: cc68 3ebb c666 c5bd bd18 0d3d fd8b c0bc
000001e0: 1db5 0cbe 0259 a3bb 4d14 13be 0f4a 9dbd
000001f0: e11c 92bc 7c57 843a 54db fdbc 734c 72be
-0.028397672 -0.030839533 -0.046741575 -0.021258721 -0.14957349 0.009609847 -0.21238771 -0.033231735
-0.093206495 -0.07866178 -0.0015476674 -0.074999094 -0.09855974 -0.14926223 -0.08397534 0.014382803
-0.05371302 -0.016450312 0.020046115 -0.062983856 -0.04552681 -0.026634803 0.015259771 -0.052602805
-0.06874365 -0.083328374 0.004563973 -0.019411003 -0.013991343 -0.020969326 -0.083912835 -0.10477289
-0.05473683 -0.024820345 0.0028998733 -0.007726912 -0.0010177743 -0.033790637 -0.037372533 -0.049387515
-0.094019204 -0.0011059076 -0.1093727 -0.11397097 0.009001361 0.028125264 -0.0013081748 -0.012506148
-0.079256065 -0.10380386 -0.07867948 -0.1095192 -0.04091526 0.020108337 -0.0803989 -0.029715028
-0.12861075 0.006011434 -0.04174588 -0.038284447 -0.0891259 -0.03569052 -0.094812274 -0.1409928
-0.095106125 -0.08030927 -0.36414123 -0.052186046 -0.064745486 -0.11993751 0.009536267 -0.07689764
-0.031987853 -0.10305927 -0.11058862 -0.0776002 0.0045316103 0.023831371 -0.15894507 -0.15327293
-0.04121514 0.03968666 0.06686809 -0.063730225 -0.1170984 -0.17753287 -0.011531401 -0.09389713
-0.020356748 -0.1708642 -0.09872773 0.01991658 -0.07492373 -0.08550931 0.0057396432 -0.14856583
-0.027469559 -0.050622575 -0.173731 -0.10943893 -0.15142748 -0.07840371 -0.030235777 -0.16048369
0.00543751 -0.042118132 -0.067251384 0.017258747 -0.21371752 -0.09388295 -0.024506418 -0.15085508
-0.060220063 -0.0020532834 -0.015490697 0.10997168 -0.0029054163 -0.09638743 0.03444742 -0.023504252
-0.13740964 -0.004984976 -0.14363213 -0.07680141 -0.017836036 0.0010096873 -0.030988373 -0.23661976

weight f4 [12, 128]
00000000: b09e cb3c c634 903c 6d7d ac3d 4ba0 aa3c
00000010: 8a41 e5bd bfc0 243a 1831 a6bc 5075 02bd
00000020: 15ed 523d aa49 e7bc 66b0 7abd 23da 11ba
00000030: fba1 743d db68 74bc 5e39 bcbc 892d 8b3d
00000040: 9d5d f83c bb37 393d 5520 e8bc 6eb4 43bc
00000050: 3fc0 8e3c b756 9bbc 718d 27bd 4c29 8dba
00000060: 122d 613d 99ab 0abd 4721 053d 3f7d ffbc
00000070: 729a 96bd 77c1 0a3d 60d7 b2b9 b0cb ef3b
00000080: 348b db3b 7c68 23bd b6b7 c5bc c351 b73c
00000090: 9280 cfbc f6a1 8cbb 4228 cabb be7f c6bc
000000a0: ad69 eebb afd5 893c 25dd 2a3c fa7e c83c
000000b0: 9065 b3bc 75f8 593c 4466 3bbd 40bf 0bbe
000000c0: 9fc6 223d bd16 113d 6521 003d 43b8 163d
000000d0: cec2 4a3d bb18 0cbd add1 0fbd d43f 26bd
000000e0: bc17 b43b 985b 15bd 24d0 90bc 0813 2bbb
000000f0: 234d 2cbd 667c cc3c 945a 26bd 2f42 8abb
00000100: 1d76 043d c328 23bd 5bcb 82bd c3e2 faba
00000110: 6071 e5bc 3294 aebc 74f9 69bd c2da 0d3d
00000120: ed37 7d3b 28a2 a7bd 853f 18bd 043d b23c
00000130: 4934 ab3c 88c8 f2bc cddf 21bd 526c c5bb
00000140: d953 b5bb 9000 ad3c 06e5 963c 30d9 8c3c
00000150: b46f 9b3c 402a c23d 03b9 94bc ee8b a33c
00000160: cc90 07bc d675 5ebd 9aaf aabb 1372 b1bb
00000170: 28d5 a73d bce2 ad3c 0e2a 87bd 67e1 77bc
00000180: 3639 143d 57b9 6d3c 178b 14bd 2eca 7a3c
00000190: cd90 f63c 0e62 2e3c 7542 8e3c 3549 c53c
000001a0: de98 33bd 55c0 6bbd 8071 973b cbd8 6a3c
000001b0: c9f7 d93c a039 363d db26 f739 0881 58bd
000001c0: 1d3f 823d a232 b43b 896e 4abd cee6 1cbc
000001d0: bdb5 a83c 48a8 f43c 6e78 46bc 9036 e13c
000001e0: 71b5 133d 3c3e 99bc 007b f2bc 2cd8 5fbd
000001f0: 0c5c 56ba 6ebb a73d 9f48 133d 8b92 7bbd
00000200: ec29 a4bc 46a0 453c 0b04 243d 8e5c 5dbb
00000210: d26d 243b 6bdd 293d 099c fbbb 1956 babc
00000220: d05a 813c c073 213d 94c6 c93c 5e1c e53b
00000230: 27ba 9c3c f080 8bbd f62e 59bd 27e9 9b3b
00000240: c6c0 89bc d066 a93d 88b5 5cbd 3021 883d
00000250: 4788 3f3d fb1f fcbc 1a7e fcbc 054e 883d
00000260: 0d01 a5bd c84e 023d 67d7 e03d 739d 023c
00000270: 2912 a6bb b8bd e33b a40e e6bd 3a14 a53c
00000280: dc79 a6ba ed98 11bd 6867 3c3b efc7 e1bb
00000290: bb27 df3c 0708 ef3b 7885 1abd d7aa 983d
000002a0: 6a57 643d 5677 153d a6d4 74bb ce9d 603d
000002b0: 04af 76bd 89cf 64bd d546 7fbd 625e 983c
000002c0: 2817 71bc 1759 3c3d 7dbc 26bd b43b 093d
000002d0: 6e10 83b7 d92d 31bd 2151 3fbd 0cd3 e33c
000002e0: 4569 633c 21c8 72bd 4c59 df39 8fbc 3d3d
000002f0: 05f4 903b ac9b ce3c a275 c03d 4af4 bb3c
00000300: 13cc 65bd 6caf 323d b310 7d3d cbdc 563d
00000310: 4bfc 3bbd 68c4 853d e53e e93c 28e2 c63c
00000320: c91a 30bd 087e 9dbd 236e 5cbd c211 ed3d
00000330: 6089 b5bc 5f36 90bd ac59 1b3d cf65 0dbc
00000340: 73f4 dcbc 00a4 4ebb d696 4ebc 1dec c03c
00000350: 8b51 1abb 1c85 37be d994 e33c 5dff c83d
00000360: dbde 92bc cf56 033c 1d12 f9bb 59f1 fbbc
00000370: 27cb e4bc 102a 8cbd e4da 67bb 4c10 dbbb
00000380: 5244 283c a288 cb3d c5a9 99bc d13f 8d3d
00000390: 2fa1 42bd 0a35 19bb 8354 f03c fa52 7c3d
000003a0: 4c38 32bc d97d 0d3d 691d e13c 28ce 2bbc
000003b0: 71e9 afba ec91 993c 7fda 53bb f166 3fbd
000003c0: e6cc 613d ca94 143d d5a4 ca3c 6f15 1c3e
000003d0: 2fa1 9e3c e208 203d 9a89 053d 1787 98bd
000003e0: c7a6 fb3c ec25 1e3d 4053 313c 48e2 9cbc
000003f0: 21d4 8c39 750e 483d e959 8bbd 7a7f b23d
0.024855942 0.01760329 0.084223606 0.020828387 -0.11194141 0.0006284825 -0.020287082 -0.03185016
0.05149563 -0.028233368 -0.061203383 -0.0005563816 0.05972479 -0.014917578 -0.022976574 0.067957945
0.030318076 0.045219164 -0.02833573 -0.011944873 0.017425654 -0.018962247 -0.040906373 -0.0010769754
0.054974623 -0.033855055 0.03250244 -0.031187652 -0.07353677 0.03387591 -0.00034111273 0.0073179826
0.006699944 -0.039894566 -0.024135452 0.022377854 -0.025329862 -0.004291768 -0.00616935 -0.024230834
-0.007275781 0.016825525 0.0104287015 0.02447461 -0.021899015 0.013303866 -0.045751825 -0.13647175
0.0397402 0.035422076 0.031281848 0.03679682 0.049502186 -0.034203272 -0.03511207 -0.040588215
0.0054959934 -0.036464304 -0.017677374 -0.0026103873 -0.04206575 0.024961662 -0.040613726 -0.0042193155
0.032339204 -0.039833795 -0.06386443 -0.0019141067 -0.028008163 -0.0213109 -0.057122663 0.03463245
0.003863807 -0.08185226 -0.037169952 0.02175761 0.020898955 -0.029636636 -0.039520074 -0.0060248757
-0.005533677 0.021118432 0.018419754 0.017193407 0.018974163 0.09480715 -0.018154627 0.019964185
-0.008274268 -0.054311596 -0.0052089216 -0.00541521 0.08194953 0.02122628 -0.06599818 -0.015129424
0.036187373 0.0145095205 -0.03626546 0.015306992 0.030098343 0.010643495 0.017365674 0.02408276
-0.043846957 -0.05755647 0.0046216846 0.014333914 0.026607411 0.04448855 0.0004714046 -0.05285743
0.06359694 0.0054992 -0.04942182 -0.0095765125 0.020594472 0.029865399 -0.012113674 0.027491838
0.036061708 -0.018706433 -0.029599667 -0.054649517 -0.0008177168 0.08190046 0.03595793 -0.06141905
-0.020039521 0.012062138 0.04004292 -0.003377709 0.0025089872 0.041470926 -0.007678513 -0.022746133
0.015790373 0.03941703 0.024630822 0.006991907 0.019131733 -0.06811702 -0.0530233 0.0047580185
-0.016815554 0.08271563 -0.05388406 0.06646955 0.046760824 -0.030776968 -0.030821849 0.06655506
-0.08056841 0.031813413 0.10978585 0.007972109 -0.005068083 0.0069501065 -0.11233261 0.020151246
-0.0012701112 -0.035546232 0.0028748158 -0.006890289 0.027240625 0.007294658 -0.037724942 0.0745446
0.055747427 0.03649076 -0.0037358194 0.054837994 -0.0602255 -0.055861983 -0.06232341 0.018599693
-0.014714994 0.0459834 -0.0407071 0.033504203 -1.5624068e-05 -0.043256614 -0.04670823 0.027810596
0.013880079 -0.05927289 0.00042600406 0.0463224 0.0044236206 0.025220715 0.09397437 0.022943635
-0.056102823 0.043624327 0.061783504 0.05245666 -0.045894902 0.06531602 0.028472373 0.024277762
-0.042994294 -0.07690054 -0.053815972 0.11575653 -0.022160232 -0.070416205 0.037927315 -0.00863023
-0.026972031 -0.0031530857 -0.012609204 0.023550088 -0.0023547139 -0.17921871 0.027780937 0.09814332
-0.017928531 0.008016302 -0.007601036 -0.030754732 -0.027928902 -0.0684396 -0.0035378272 -0.0066852923
0.010270195 0.0993817 -0.01875771 0.06896938 -0.047516998 -0.002337756 0.029337173 0.06160257
-0.01087768 0.034543846 0.027479844 -0.010486163 -0.0013421011 0.018746339 -0.0032326279 -0.046729032
0.055127047 0.03627471 0.024736801 0.15242551 0.019363968 0.03907097 0.03260193 -0.07447641
0.030719174 0.038610384 0.010823071 -0.019150868 0.0002686093 0.048841912 -0.068042584 0.087157205

bias f4 [12]
00000000: f1f6 95bc 1c60 863d 0a96 a8bc 3cd3 f23b
00000010: eff0 f3bd 644b 74bd bd66 9dbd c851 263e
00000020: d6fc cb3d 5402 0f3e 850f 3a3e a017 933d
-0.018306227 0.065613 -0.020579357 0.007410435 -0.11911189 -0.05964221 -0.076856114 0.16242135
0.09960334 0.13965732 0.18169983 0.071822405
